accuracy : 0.004
=================================================================
_________________________________________________________________
Layer (type)                 Output Shape              Param #   
=================================================================
input_1 (InputLayer)         (None, 1000, 30)          0         
_________________________________________________________________
time_distributed_1 (TimeDist (None, 1000, 50)          1550      
_________________________________________________________________
cu_dnnlstm_1 (CuDNNLSTM)     (None, 1000, 25)          7700      
_________________________________________________________________
batch_normalization_1 (Batch (None, 1000, 25)          100       
_________________________________________________________________
cu_dnnlstm_2 (CuDNNLSTM)     (None, 1000, 50)          15400     
_________________________________________________________________
batch_normalization_2 (Batch (None, 1000, 50)          200       
_________________________________________________________________
cu_dnnlstm_3 (CuDNNLSTM)     (None, 25)                7700      
_________________________________________________________________
batch_normalization_3 (Batch (None, 25)                100       
_________________________________________________________________
dense_2 (Dense)              (None, 1)                 26        
=================================================================
Total params: 32,776
Trainable params: 32,576
Non-trainable params: 200
_________________________________________________________________
