accuracy : 0.032
=================================================================
_________________________________________________________________
Layer (type)                 Output Shape              Param #   
=================================================================
input_1 (InputLayer)         (None, 239, 7)            0         
_________________________________________________________________
time_distributed_1 (TimeDist (None, 239, 50)           400       
_________________________________________________________________
cu_dnnlstm_1 (CuDNNLSTM)     (None, 239, 25)           7700      
_________________________________________________________________
batch_normalization_1 (Batch (None, 239, 25)           100       
_________________________________________________________________
cu_dnnlstm_2 (CuDNNLSTM)     (None, 239, 50)           15400     
_________________________________________________________________
batch_normalization_2 (Batch (None, 239, 50)           200       
_________________________________________________________________
cu_dnnlstm_3 (CuDNNLSTM)     (None, 25)                7700      
_________________________________________________________________
batch_normalization_3 (Batch (None, 25)                100       
_________________________________________________________________
dense_2 (Dense)              (None, 1)                 26        
=================================================================
Total params: 31,626
Trainable params: 31,426
Non-trainable params: 200
_________________________________________________________________
